…
11200/11200 - 4s - loss: 0.1257 - accuracy: 0.9552 - val_loss: 1.7343 - val_accuracy: 0.5756
Epoch 49/50
11200/11200 - 5s - loss: 0.1194 - accuracy: 0.9578 - val_loss: 0.1718 - val_accuracy: 0.9402
Epoch 50/50
11200/11200 - 4s - loss: 0.1287 - accuracy: 0.9563 - val_loss: 0.6368 - val_accuracy: 0.7502
Model: "ReferenceModel"
_________________________________________________________________
Layer (type)                 Output Shape              Param #   
=================================================================
input_1 (InputLayer)         [(None, 3840, 1)]         0         
_________________________________________________________________
batch_normalization (BatchNo (None, 3840, 1)           4         
_________________________________________________________________
conv1d (Conv1D)              (None, 1277, 6)           60        
_________________________________________________________________
batch_normalization_1 (Batch (None, 1277, 6)           18        
_________________________________________________________________
activation (Activation)      (None, 1277, 6)           0         
_________________________________________________________________
max_pooling1d (MaxPooling1D) (None, 212, 6)            0         
_________________________________________________________________
conv1d_1 (Conv1D)            (None, 212, 3)            18        
_________________________________________________________________
batch_normalization_2 (Batch (None, 212, 3)            9         
_________________________________________________________________
activation_1 (Activation)    (None, 212, 3)            0         
_________________________________________________________________
conv1d_2 (Conv1D)            (None, 207, 4)            72        
_________________________________________________________________
batch_normalization_3 (Batch (None, 207, 4)            12        
_________________________________________________________________
activation_2 (Activation)    (None, 207, 4)            0         
_________________________________________________________________
conv1d_3 (Conv1D)            (None, 205, 3)            36        
_________________________________________________________________
batch_normalization_4 (Batch (None, 205, 3)            9         
_________________________________________________________________
activation_3 (Activation)    (None, 205, 3)            0         
_________________________________________________________________
max_pooling1d_1 (MaxPooling1 (None, 102, 3)            0         
_________________________________________________________________
conv1d_4 (Conv1D)            (None, 101, 2)            12        
_________________________________________________________________
batch_normalization_5 (Batch (None, 101, 2)            8         
_________________________________________________________________
activation_4 (Activation)    (None, 101, 2)            0         
_________________________________________________________________
global_average_pooling1d (Gl (None, 2)                 0         
_________________________________________________________________
dense (Dense)                (None, 1)                 2         
_________________________________________________________________
batch_normalization_6 (Batch (None, 1)                 4         
_________________________________________________________________
activation_5 (Activation)    (None, 1)                 0         
=================================================================
Total params: 264
Trainable params: 224
Non-trainable params: 40
_________________________________________________________________
11200/11200 - 1s
4800/4800 - 1s
Training set performance:
- accuracy: 0.9698
- sensitivity: 0.9877
- specificity: 0.9520
- precision: 0.9536
- AUC: 0.9934
Validation set performance:
- accuracy: 0.9669
…
